Code/price_predictor.pth (torch, 43224 bytes, 5 tensors)

network.0.weight f4 [128, 13]
0	0x410e92a5	8.910802
1	0xbca42392	-0.020036492
2	0xbd72961f	-0.059225198
3	0xbcd289f2	-0.025700543
4	0x3e1a3ee9	0.15063061
5	0x3dddb13d	0.10824821
6	0xbddae885	-0.10688881
7	0xc154de0a	-13.304209
8	0xbc52e546	-0.012872046
9	0xbeaa49ea	-0.33259517
10	0x4200d25e	32.205437
11	0xbcf544ef	-0.029940097
12	0x3cf85bbf	0.030317185
13	0x3da5c455	0.08094088
14	0x3e5671b7	0.20941816
15	0xbdda7b6d	-0.10668073
16	0x3e816c2a	0.25277835
17	0x3d4f8c72	0.05067105
18	0xbe3b9a36	-0.18320546
19	0xbe322ec2	-0.17400649
20	0xbd90f782	-0.07078458
21	0x3e3a87d6	0.1821588
22	0x3e0fef62	0.14056161
23	0x3d6e3b7c	0.058162197
24	0xbe7d3639	-0.24727716
25	0x3d765723	0.060141694
26	0x41104f1b	9.019313
27	0x3d480ed2	0.04884226
28	0x3c5bc48a	0.013413558
29	0xbc6b5d2b	-0.014365475
30	0x3c7a9cfb	0.015296216
31	0x3d8b2621	0.06794382
32	0x3cd113b5	0.025522092
33	0xc151d60c	-13.114758
34	0x3cc4f16d	0.024040902
35	0xbf4a0144	-0.7890818
36	0x4202fb04	32.745132
37	0xbcbac7ee	-0.022800412
38	0xbe42567f	-0.18978308
39	0xbe1a38e0	-0.15060759
40	0x3dc34b0f	0.09535801
41	0xbdeb1f86	-0.11480622
42	0xbe4f4beb	-0.20243804
43	0x3e3caa6c	0.18424386
44	0x3cdf1349	0.027230876
45	0x3e47a3cc	0.19496077
46	0x3d0ae9ef	0.033914503
47	0x3e081aa9	0.1329142
48	0xbe239ebd	-0.15978523
49	0xbe5731c6	-0.21015081
50	0xbdd9b068	-0.1062935
51	0xbe888323	-0.2666255
52	0x3f110bf1	0.56658846
53	0xbd47814b	-0.048707288
54	0xbb85509e	-0.004068448
55	0x3a3a4a15	0.0007106376
56	0x3d62c244	0.055361047
57	0xbedaef72	-0.42760807
58	0x3ce10dcd	0.027472401
59	0xc047d6b5	-3.1224797
60	0xbc27ec9c	-0.010249283
61	0x3e8fe8ef	0.28107402
62	0x428df440	70.97705
63	0x3acc606e	0.0015592703
64	0xbaf49920	-0.0018661357
65	0x4081e88e	4.059638
66	0xc011af5e	-2.2763286
67	0x3ee0c7fc	0.43902576
68	0x3e197ae1	0.14988281
69	0x3d753dae	0.059873275
70	0xbf824a6c	-1.0178962
71	0x3bac4c57	0.005258124
72	0xc1429d2d	-12.163373
73	0xbdcc418c	-0.099734396
74	0xc02a828c	-2.664218
75	0x4118ce58	9.550377
76	0xbead6118	-0.3386314
77	0xbe6b289a	-0.22964707
78	0xbf8781e6	-1.0586517
79	0x3eae7718	0.34075236
80	0xbe672c3c	-0.22575468
81	0xbc2bf224	-0.010494743
82	0xbaa91af8	-0.0012901714
83	0xc0f5b768	-7.6786385
84	0xbe0bb93c	-0.1364488
85	0xbf810f8e	-1.0082872
86	0xbe210ddf	-0.15727948
87	0x3e752feb	0.2394406
88	0x428a860c	69.26181
89	0x3da9e914	0.08296409
90	0x3e879c1d	0.26486292
91	0x3d9fbf3d	0.07800148
92	0x3d6c2a70	0.05765766
93	0xbe6af10d	-0.22943516
94	0x3d545044	0.05183436
95	0x3d48edf9	0.049055073
96	0xbe8bb6ce	-0.27287906
97	0x3e112a1f	0.14176224
98	0x3da93938	0.08262867
99	0xbe86a934	-0.26300967
100	0xbe6edbf7	-0.23326097
101	0xbe23019a	-0.1591858
102	0xbe019c0f	-0.12657188
103	0xbd55341b	-0.052051645
104	0xbd7b62cb	-0.061373513
105	0xbdd39e96	-0.10332982
106	0x3dc5ae41	0.09652377
107	0xbe7fec41	-0.24992467
108	0xbe3d4654	-0.1848386
109	0x3ce0217f	0.027359722
110	0x3e391f09	0.18078245
111	0x3dfb63a4	0.12274864
112	0x3d52261e	0.051305883
113	0xbe3b65da	-0.18300572
114	0x3e8135b2	0.2523628
115	0xbe4e2ee3	-0.20135073
116	0xbcdf5824	-0.027263708
117	0x3d24a161	0.040192965
118	0xc08863c9	-4.262181
119	0x3cadd251	0.02121845
120	0xbea1150d	-0.31461373
121	0xbf874dfc	-1.0570674
122	0x40a88a3a	5.2668734
123	0x3f81aecf	1.0131472
124	0xc10879cb	-8.529735
125	0x3ee18be0	0.4405203
126	0x3f953dba	1.1659462
127	0x42376c3b	45.855694
128	0x3dd9fc79	0.106438585
129	0x3e9f447a	0.3110693
130	0x3e628465	0.22120817
131	0x3dadb9f4	0.08482733
132	0xbe00e797	-0.12588345
133	0xbdcd0e93	-0.100125454
134	0x3db06920	0.08613801
135	0xbdd0f4ca	-0.1020294
136	0x3cdcc169	0.026947694
137	0xbe39be6f	-0.18139051
138	0x3e37815c	0.1792044
139	0xbe70f4ae	-0.23530838
140	0x3e85892f	0.26081225
141	0xbe6fc05d	-0.23413225
142	0x3e04b59e	0.12959906
143	0xbe7918be	-0.24325845
144	0xbd8e3639	-0.06943936
145	0x3d9f3ad6	0.07774894
146	0xbe63dd26	-0.2225233
147	0xbde4236e	-0.1113957
148	0x3e6f9f7d	0.23400684
149	0xbe36acfd	-0.17839427
150	0xbe29f4c2	-0.16597274
151	0xbe751faa	-0.2393786
152	0x3e4ad2cc	0.19806975
153	0xbe7c7be3	-0.24656634
154	0xbda98870	-0.082779765
155	0x3e7aafeb	0.2448117
156	0x3fea033c	1.8282237
157	0xbc074960	-0.00825724
158	0xba9fd8b2	-0.0012195318
159	0xb9e8d2d8	-0.0004440758
160	0x3b9b35a5	0.0047366195
161	0xbf2cd397	-0.6751036
162	0xbc86a3bc	-0.016435497
163	0xc08fe087	-4.496158
164	0xbb94a1a1	-0.004535869
165	0x3c5a846d	0.013337237
166	0x428b6379	69.69428
167	0x3a21376d	0.00061499217
168	0xbd17c82a	-0.037056126
169	0x3f0c4101	0.5478669
170	0x39e5933b	0.0004378798
171	0x3a60b3f5	0.00085717376
172	0xb9cd442f	-0.00039151448
173	0xbbfb40d9	-0.0076676426
174	0xbebf7656	-0.3739497
175	0xbc839b6e	-0.016065326
176	0xc03e20e8	-2.9707584
177	0x3b9b545c	0.004740281
178	0x3c569d20	0.013098985
179	0x428c7192	70.22182
180	0x396fff95	0.00022888028
181	0xbb3a75ca	-0.0028451555
182	0x3df1e650	0.11811507
183	0xbd0ad3a4	-0.033893242
184	0x3d741765	0.059592623
185	0x3e27b898	0.1637901
186	0x3e88cff8	0.26721168
187	0x3d98e363	0.074652456
188	0xbe169df5	-0.14708693
189	0xbdcc4bdb	-0.09975406
190	0xbd9fa40f	-0.077949636
191	0x3e4110b3	0.18854026
192	0xbe1a01df	-0.15039776
193	0xbe1cd3ce	-0.15315172
194	0xbe77eed8	-0.24212205
195	0x3fe1902f	1.7622126
196	0xbece7e27	-0.40330622
197	0x3d114fdc	0.03547655
198	0x3f015398	0.5051818
199	0xbaf74af7	-0.0018866946
200	0x3f533aa6	0.82511365
201	0x3d60c968	0.054879576
202	0xc0a4589e	-5.1358175
203	0x3d8b7905	0.06810192
204	0xbf0c02bf	-0.5469169
205	0xc284c4e6	-66.38457
206	0xbd8fa106	-0.07013135
207	0x3e85ba75	0.26118818
208	0x3dbd90cd	0.09256134
209	0xbf1609b0	-0.5860853
210	0xbcc00b67	-0.023442937
211	0x3d7b08b0	0.061287582
212	0x3d79e0f3	0.061005544
213	0x40e6d377	7.2133136
214	0x3d73ac76	0.059490643
215	0xbf61cf62	-0.88207066
216	0xbded3d19	-0.11583919
217	0xbf27afd8	-0.6550269
218	0x427edfa8	63.718414
219	0x3b0652a5	0.0020496037
220	0x3ee17063	0.44031057
221	0xbe815e80	-0.2526741
222	0x3e200214	0.15625793
223	0xbcd77393	-0.026300227
224	0x3e1d76c4	0.15377337
225	0x3e84f1c9	0.25965717
226	0xbc1c29cc	-0.0095314495
227	0x3d53ce77	0.051710572
228	0xbe63025a	-0.22168866
229	0xbe07e715	-0.13271745
230	0xbcfccf4c	-0.030860566
231	0xbb33aa13	-0.0027414605
232	0xbe59e5d5	-0.2127908
233	0x3e1b4180	0.15161705
234	0x411601b2	9.375414
235	0x3fef1b77	1.8680257
236	0xbdee2763	-0.11628606
237	0xbfa92cd5	-1.3216807
238	0x3e564b4d	0.20927162
239	0x3f144b77	0.5792765
240	0x3f4403a8	0.7656808
241	0xc201be69	-32.435947
242	0xbcad18fe	-0.021130081
243	0x3f7a1823	0.9769308
244	0x42453613	49.302807
245	0x3e1f22ac	0.1554057
246	0x3dbea848	0.09309441
247	0x3f929ab3	1.145346
248	0xbaa19369	-0.0012327257
249	0x38e77e9d	0.00011038522
250	0x3b82b8e3	0.0039893254
251	0xbd8255d0	-0.06364024
252	0xbf1838bf	-0.5946159
253	0x3e0cdc6f	0.13755964
254	0xc08db5c2	-4.428437
255	0xbd193f71	-0.037414018

network.0.bias f4 [128]
0	0x3e1ccbcc	0.15312117
1	0xbd3519bd	-0.044214
2	0xbd8544d7	-0.06507271
3	0x3c62a488	0.013833173
4	0xbe397897	-0.18112408
5	0xbefaaaba	-0.4895838
6	0xbee1a3c3	-0.44070253
7	0xbd33b803	-0.04387666
8	0x3e10bb35	0.14133914
9	0xbe73d7b0	-0.23812747
10	0x3e35580a	0.17709365
11	0xbdf431ef	-0.119235866
12	0xbe40a3df	-0.18812512
13	0xbe954034	-0.29150546
14	0xbdbb96c5	-0.091596164
15	0x3e706c4b	0.2347881
16	0xbd644489	-0.055729423
17	0xbe666116	-0.22497973
18	0xbe022198	-0.12708127
19	0xbe461c11	-0.19346644
20	0x3e64a90d	0.22330113
21	0xbe5f7fd8	-0.21826112
22	0xbe557165	-0.20844038
23	0xbe78771e	-0.2426419
24	0xbe26f860	-0.16305685
25	0xbe7cbbed	-0.24681063
26	0xbe05cf6c	-0.13067406
27	0x3cc82709	0.024432676
28	0xbb9b1a2d	-0.004733345
29	0xbed82b60	-0.42220592
30	0xbc6a7c9b	-0.014311935
31	0x3dd67049	0.104706354
32	0x3e92f26c	0.28700578
33	0x3d4495c3	0.047994386
34	0x3d078b9e	0.033092134
35	0xbef623ab	-0.48074088
36	0x3e0bf14e	0.13666269
37	0x3e405078	0.18780696
38	0xbe82be50	-0.25535822
39	0xbede350b	-0.43399844
40	0xbd255234	-0.040361598
41	0xbcc1ae04	-0.023642547
42	0x3d0357a3	0.032066
43	0xbe31b346	-0.17353544
44	0xbdffaa29	-0.12483627
45	0xbdfe89a8	-0.124285996
46	0x3e0ee3cb	0.13954084
47	0x3da4a002	0.080383316
48	0xbe7a2f74	-0.24432164
49	0xbe96ff90	-0.29491854
50	0xbea546f2	-0.3228069
51	0xbd168ae7	-0.03675356
52	0xbeda60fd	-0.4265212
53	0x3e5c014b	0.21484868
54	0xbdcfba5c	-0.10142967
55	0xbd835545	-0.06412748
56	0xbe46a2ba	-0.19398013
57	0x3df3d99c	0.1190674
58	0x3de722ae	0.112859115
59	0xbe82d391	-0.25552037
60	0xbb5e5f38	-0.0033931267
61	0xbd918427	-0.07105284
62	0xbeda4f45	-0.42638603
63	0xbdb6bb07	-0.089223914
64	0x3de3e6ea	0.11128028
65	0xbdb817e2	-0.0898893
66	0xbd8df4e8	-0.06931478
67	0x3d2c578b	0.042075675
68	0x3dea3bd2	0.11437191
69	0xbeafa3d0	-0.34304667
70	0xbe4f4755	-0.20242055
71	0x3e39c987	0.18143283
72	0x3e5b4be8	0.21415675
73	0xbe19db8b	-0.15025155
74	0xbdc6a2a5	-0.09698991
75	0x3e25e69d	0.16201253
76	0xbd875bcb	-0.06609305
77	0x3de21664	0.11039427
78	0xbdd100a6	-0.10205202
79	0x3e0b6ed2	0.13616493
80	0x3e84aee1	0.25914672
81	0xbd7cf56f	-0.0617575
82	0x3ccbc767	0.024875356
83	0xbe33dabe	-0.17563912
84	0xbe00b291	-0.12568118
85	0x3e6371a6	0.22211322
86	0x3ced6304	0.028977878
87	0xbe577115	-0.21039231
88	0xbd9548b6	-0.07289259
89	0xbdb595ec	-0.08866486
90	0xbe2a3526	-0.16621837
91	0xbdd616b3	-0.10453548
92	0x3d8c0d98	0.0683853
93	0xbee782c7	-0.45216963
94	0x3df7a4d3	0.120919846
95	0xbe0cffc8	-0.13769448
96	0xbea5a854	-0.32354987
97	0xbe4199de	-0.18906352
98	0xbe0804b4	-0.13283044
99	0x3cae2f2c	0.021262728
100	0xbe84e402	-0.25955206
101	0xbe9a2387	-0.3010523
102	0x3d8da900	0.06917
103	0x3e30c235	0.17261584
104	0xbd0cbf1b	-0.03436194
105	0x3e6a7b60	0.22898626
106	0xbcef7b9f	-0.029233752
107	0x3dc0853a	0.09400411
108	0xbe554ea2	-0.20830777
109	0xbd934851	-0.07191528
110	0xbe868fc9	-0.26281574
111	0xbe7f1513	-0.24910383
112	0xbd88f71f	-0.066877596
113	0xbe017cdf	-0.12645291
114	0xbd5ea3f7	-0.054355588
115	0xbea35d2b	-0.3190702
116	0xbdf4f62d	-0.11961017
117	0xbe1a5c2f	-0.15074228
118	0xbe1ca030	-0.15295482
119	0x3db37163	0.08761861
120	0x3c84d085	0.016212711
121	0xbe83d4b9	-0.25748232
122	0xbd110f68	-0.035415083
123	0xbdd8f395	-0.105933346
124	0xbe39607c	-0.18103212
125	0xbe0ec7ad	-0.13943358
126	0x3da28695	0.07935826
127	0x3c37eb21	0.011225493

network.2.weight f4 [64, 128]
0	0x3f5cfafe	0.86320484
1	0x3d576e98	0.052595705
2	0x3eb8eea4	0.36119568
3	0xbd1519ec	-0.036401674
4	0x3e8207c0	0.25396538
5	0x3d135863	0.035972964
6	0xbccf8262	-0.025330726
7	0xbd14b819	-0.03630838
8	0x3ce186f5	0.027530173
9	0xbe97477a	-0.2954672
10	0xbd88c0e5	-0.06677417
11	0x3d968585	0.073496856
12	0x3fca07f3	1.5783676
13	0x405e602e	3.4746203
14	0x3d6529d5	0.055948097
15	0x3e408c23	0.18803458
16	0xbf11973e	-0.568714
17	0xbc8b9095	-0.017036716
18	0xbdce81f2	-0.10083379
19	0x3f1675cb	0.5877349
20	0xbd9a9602	-0.07548143
21	0x4002b0cc	2.0420408
22	0x3cecc959	0.028904604
23	0x3da0c9d8	0.07850999
24	0x3ecf5593	0.40494975
25	0x3c162094	0.009163041
26	0x3e26fe98	0.16308057
27	0x3e78d86d	0.2430131
28	0xbef7879d	-0.48345652
29	0xbeef40c8	-0.46729112
30	0x3e969657	0.29411575
31	0x3d6c9aa1	0.057764653
32	0x3fa8e083	1.3193516
33	0x3ff099dc	1.8796954
34	0x3da070bc	0.078340024
35	0xbe81f5af	-0.25382754
36	0x3c890129	0.016724186
37	0xbd8a685a	-0.06758185
38	0x3cbc06c5	0.022952447
39	0x3f79da14	0.97598386
40	0xbd7c8eb7	-0.06165954
41	0x3d869d92	0.06573023
42	0x3cd76ee1	0.026297988
43	0x3e214a3e	0.15750977
44	0x3ef9890c	0.4873737
45	0x3f144300	0.57914734
46	0x400661ab	2.0997112
47	0x3d81c228	0.063358605
48	0x3f73e6c9	0.95274025
49	0x3f9e5df8	1.2372427
50	0x3f5b889e	0.85755336
51	0x3fd15592	1.6354239
52	0x40012959	2.0181487
53	0xbcaae847	-0.020862712
54	0xbf2a46aa	-0.66514075
55	0x3fd33b53	1.6502479
56	0xbd378922	-0.044808514
57	0xbf7659bf	-0.9623069
58	0xbef29124	-0.47376359
59	0xbedfada4	-0.43687165
60	0xbd06bede	-0.03289687
61	0xbf0ea902	-0.55726635
62	0xbf1c48ce	-0.6104859
63	0x3d8043b5	0.06262914
64	0x3d893ccf	0.067010514
65	0xbc23ad29	-0.009990015
66	0x3d05090f	0.032479342
67	0x3eec2bab	0.46127066
68	0x3c838500	0.01605463
69	0x3f2aaf02	0.6667329
70	0x3e202ccd	0.1564209
71	0x3d109598	0.035298914
72	0x3d8029b1	0.06257952
73	0x40102fa4	2.2529078
74	0xbe09418f	-0.13403915
75	0xbd72dec5	-0.05929448
76	0x3e44f08d	0.19232388
77	0x3dab3633	0.08359947
78	0x403dce71	2.9657252
79	0x3d2366d8	0.039893
80	0xbebe092a	-0.37116367
81	0xbd9e394c	-0.07725772
82	0x3d73bea0	0.059507966
83	0xbc77819c	-0.015106585
84	0xbd913f02	-0.07092096
85	0x3cda79ac	0.026669346
86	0x3e63492a	0.22195879
87	0x3ee14982	0.44001395
88	0xbcc8cf0f	-0.024512796
89	0x3e376328	0.17908919
90	0xbd4536e2	-0.048148043
91	0x3dea5ef2	0.11443891
92	0x3cc86395	0.024461547
93	0x3eae7241	0.34071544
94	0xbda41df7	-0.08013528
95	0x3d05b0dd	0.032639373
96	0x3f3c408c	0.7353599
97	0xbf318343	-0.69340914
98	0xbcdf04dd	-0.027223999
99	0x3c75bb5b	0.014998282
100	0x3e8dcf26	0.27697104
101	0xbedd3783	-0.43206415
102	0x3d53c0a1	0.051697377
103	0x3dae63e3	0.08515146
104	0xbd0ad08c	-0.033890292
105	0x3ffc3e9f	1.970661
106	0x3cfc2cb5	0.030783037
107	0x3d831248	0.06399971
108	0xbf3caf5b	-0.7370507
109	0x406d8ed7	3.7118433
110	0x3d918bf7	0.07106774
111	0xbc891fad	-0.016738737
112	0x3fa78351	1.308695
113	0xbe4220eb	-0.1895787
114	0xbba51d9b	-0.0050389296
115	0x3f9d6304	1.2295842
116	0x3bd5621f	0.006511941
117	0xbef62045	-0.48071495
118	0xbe8a660f	-0.2703099
119	0xbe93ef6f	-0.2889361
120	0x3f979c0f	1.18445
121	0x3d667566	0.056264304
122	0xbc5bd324	-0.013417039
123	0x3d04a766	0.032386206
124	0xbb03acaa	-0.002009193
125	0x3c2a05bc	0.010377344
126	0x3f341857	0.7034964
127	0xbbd10799	-0.0063790795
128	0x4080aa79	4.0208097
129	0x3d43ff83	0.047851097
130	0x408119c8	4.034397
131	0x3da52eee	0.08065592
132	0x3f26a71f	0.65098757
133	0x3fee87aa	1.8635151
134	0x3e2eb99e	0.17062995
135	0xbd7d1232	-0.06178493
136	0xbd2ac097	-0.041687574
137	0xbebcbd2e	-0.36863083
138	0x3d9bd809	0.07609565
139	0x3d66d191	0.0563522
140	0x40142c63	2.3152092
141	0x409e6e2e	4.9509497
142	0x3d36bc05	0.044612903
143	0xbf7c1846	-0.9847454
144	0x3ea5bb5f	0.32369515
145	0xbd409445	-0.0470164
146	0xbe805804	-0.2506715
147	0x3faf2e5d	1.3686024
148	0xbc4fa4d7	-0.012673578
149	0x4050d0fa	3.262755
150	0x3d95a595	0.07306973
151	0x3c9bf4d7	0.019037647
152	0x3f72ad61	0.94795805
153	0xbd7431cf	-0.059617814
154	0x3f6dbbc0	0.9286461
155	0x3f527faa	0.8222605
156	0x3c01c1ed	0.007919771
157	0xbe25692a	-0.16153398
158	0x3f38abc0	0.7213707
159	0x3f6545d1	0.89559656
160	0xbea41ef6	-0.3205487
161	0x4075cb7b	3.8405445
162	0xbdb2c7a3	-0.08729484
163	0x3fe8bdcd	1.8182923
164	0x3d02a605	0.03189661
165	0x3d16883a	0.03675101
166	0x3d693999	0.056939695
167	0x402ac21c	2.6680975
168	0xbc0a17ce	-0.008428527
169	0xbd8c980f	-0.068649404
170	0x3c8a7c6f	0.016905038
171	0x3f3f379c	0.7469423
172	0x404e1583	3.220063
173	0x408c92d3	4.392923
174	0x40555afe	3.3336787
175	0x3d849182	0.06473066
176	0x4024b5dc	2.5735998
177	0x402335f5	2.5501683
178	0x3fff7b0f	1.995943
179	0x4014d6c9	2.3256094
180	0x406bfa11	3.6871378
181	0xbda4b716	-0.08042733
182	0x3d895b33	0.06706848
183	0x4011b736	2.2768073
184	0x3efff4ab	0.49991354
185	0x3ed46235	0.41481176
186	0x3dbe058b	0.09278401
187	0xbea1b9a0	-0.31586933
188	0x3d9b839f	0.07593464
189	0xbc7a81a0	-0.015289694
190	0x3e3ec85e	0.18631122
191	0x3da1a91a	0.07893582
192	0x3d85ef93	0.06539836
193	0x3d222b17	0.039591875
194	0xbc338bb5	-0.010958602
195	0x4028250f	2.6272619
196	0x3c8ea8f0	0.01741454
197	0x3f96481d	1.1740757
198	0x3f45be15	0.7724317
199	0x3c8a8b59	0.01691215
200	0x3d387311	0.04503161
201	0x40989f02	4.76941
202	0x3f949dc8	1.1610651
203	0xbd9d72c2	-0.07687904
204	0x3f9a37ec	1.2048316
205	0xbd1fdb46	-0.039027475
206	0x407336ea	3.8002267
207	0x3d9440db	0.07238933
208	0x3d2e8808	0.0426102
209	0xbd38fff5	-0.045165975
210	0xbd3abec5	-0.04559209
211	0x3f26c781	0.6514817
212	0xbebd60dc	-0.3698796
213	0xba9921a5	-0.0011683
214	0x404b9bbe	3.1813807
215	0x3fdb8237	1.7149113
216	0xbc32010e	-0.010864509
217	0x3f533b68	0.8251252
218	0xbd175382	-0.036944874
219	0x3f41e355	0.75737506
220	0xbeb2bba5	-0.34908786
221	0x3f438625	0.76376563
222	0xbd6b5325	-0.05745234
223	0x3d9229c1	0.0713687
224	0x4071986b	3.7749279
225	0x3d2d34a4	0.04228653
226	0x3f04f48b	0.5193564
227	0xbcd7c613	-0.026339566
228	0x3f3ace39	0.7297092
229	0xbe39be26	-0.18138942
230	0x3d4f0b4c	0.050547883
231	0x3d9e3f94	0.0772697
232	0xbd9b955d	-0.07596848
233	0x407e5b34	3.9743166
234	0xbef3344b	-0.47500834
235	0x3d2b3453	0.041797947
236	0x3d82c2e2	0.06384827
237	0x4087b8ca	4.2413073
238	0xbd38bf53	-0.045104336
239	0xbcfee321	-0.031114163
240	0xbf136503	-0.57576007
241	0xbde91767	-0.11381417
242	0xbad78621	-0.0016443172
243	0x405d1cfc	3.454894
244	0xbd83a4b1	-0.06427897
245	0x3e18c59e	0.14919135
246	0xbc2efa48	-0.010679789
247	0x3daaedcd	0.08346138
248	0x3ff7c684	1.9357457
249	0x3ce0e75a	0.027454067
250	0x3eec2237	0.46119854
251	0x3cd14d37	0.025549514
252	0xbd1ff6bb	-0.03905366
253	0xbd74c170	-0.05975479
254	0x40684d79	3.6297286
255	0x3f246fb6	0.6423296

network.2.bias f4 [64]
0	0xbd27a238	-0.04092619
1	0xbee9ee6f	-0.45689723
2	0xbcdf6b55	-0.02727286
3	0xbeb74094	-0.35791457
4	0xbd7813b6	-0.060565673
5	0xbd9508ad	-0.072770454
6	0xbd72dc00	-0.05929184
7	0x3c88f506	0.016718399
8	0xbec35e3b	-0.3815783
9	0x3cdde44c	0.0270864
10	0xbd8957a8	-0.06706172
11	0xbf02d011	-0.51098734
12	0xbd786098	-0.060638994
13	0xbd6b8eb8	-0.057509154
14	0xbcf8c375	-0.030366639
15	0x3f3de819	0.7418228
16	0xbde6332e	-0.112402305
17	0xbebcc510	-0.36869097
18	0x3c8acd80	0.016943693
19	0xbd82e8d3	-0.06392064
20	0xbd87af79	-0.06625266
21	0xbf9b3498	-1.2125425
22	0xbde46b8f	-0.11153328
23	0xbd25fa93	-0.04052217
24	0xbedcdc78	-0.43136954
25	0xbcd29b17	-0.025708718
26	0xbe8db72f	-0.2767882
27	0x3f1a18f5	0.6019433
28	0xbe95f7c3	-0.2929059
29	0xbe8ec0e2	-0.27881533
30	0x3c5dfcd6	0.01354905
31	0xbee14213	-0.43995723
32	0x3eb3c633	0.35112152
33	0xbdb1d10c	-0.08682451
34	0xbd2ae24f	-0.04171973
35	0xbda6c62e	-0.081432685
36	0xbdf870d1	-0.12130893
37	0x3d1f4d1b	0.038891893
38	0xbd5546a1	-0.05206931
39	0xbf255f0b	-0.6459815
40	0xbefc9d0a	-0.4933856
41	0xbd9f21a2	-0.07770087
42	0xbc7dac6a	-0.015483001
43	0xbec177a8	-0.37786603
44	0xbda546b4	-0.08070126
45	0x3cbabeea	0.022796113
46	0xbeab4b96	-0.33456105
47	0xbd4fea47	-0.050760534
48	0xbcee48e2	-0.029087488
49	0xbde2064e	-0.11036359
50	0xbeb185e7	-0.34672472
51	0x3be996c6	0.0071285693
52	0xbee8f5b8	-0.4549997
53	0xbd8d24f3	-0.06891813
54	0xbd50d8dc	-0.050988063
55	0xbcc664d9	-0.02421801
56	0xbedb1f1e	-0.42797178
57	0xbee212ed	-0.44155064
58	0xbeb5766d	-0.35441914
59	0x3c987b88	0.018613592
60	0xbf102e16	-0.5632032
61	0x3f040d64	0.5158293
62	0xbf0fdf54	-0.56200147
63	0xbd8cf547	-0.068827204

network.4.weight f4 [1, 64]
0	0x3efeb079	0.49744013
1	0x40487400	3.13208
2	0xbb1cbe11	-0.0023917
3	0x3fbef996	1.4919918
4	0xbd7fee49	-0.062483106
5	0xbd744451	-0.059635464
6	0xbd60b826	-0.054863118
7	0xbd8a75f0	-0.06760776
8	0x3fb9b89b	1.4509462
9	0xbd9256b0	-0.071454406
10	0xbc1a1366	-0.009404039
11	0x409c3761	4.88176
12	0xbda696c6	-0.081342265
13	0xbc4b8491	-0.012421743
14	0x3ba592b6	0.0050528897
15	0xc0031961	-2.048424
16	0xbcd1e8e9	-0.025623756
17	0x3fb9ef98	1.4526243
18	0x3d80fa10	0.06297696
19	0x3dedd5bc	0.11613032
20	0xbda8c7e4	-0.08241251
21	0x403c4037	2.9414194
22	0xbd0753c8	-0.033038884
23	0xbcc9ddf9	-0.024641978
24	0x3fbf21d6	1.4932201
25	0xba2f6b59	-0.0006691716
26	0x3fb7b7a1	1.4352914
27	0xc0188d64	-2.3836298
28	0x3faea957	1.3645428
29	0x3fb47805	1.4099127
30	0x3d4233c9	0.047412667
31	0x3fb1cf11	1.3891317
32	0xbfc1000c	-1.5078139
33	0xbd3eceda	-0.046583988
34	0xbb8cf4cd	-0.0043016435
35	0x3daccd94	0.084376484
36	0xbda6e07a	-0.08148284
37	0x3b9da404	0.004810812
38	0xbc83018c	-0.015991949
39	0x400e597a	2.2242112
40	0x3ff0dfab	1.8818258
41	0x3c8930f9	0.016746985
42	0xbc7d70a7	-0.015468753
43	0x3fb0608c	1.3779464
44	0x3da943f7	0.082649164
45	0x3ccc8277	0.024964554
46	0x3fb794be	1.4342268
47	0xbd430ba7	-0.047618534
48	0x3c7e91bc	0.0155376755
49	0x3c1a5242	0.009419026
50	0x3fbaa426	1.4581344
51	0xbd2f3a09	-0.042779956
52	0x402d7125	2.7100308
53	0xbc9f6b50	-0.01946035
54	0x3c99e36e	0.018785205
55	0x3b9b5997	0.0047409046
56	0x3fae78b7	1.3630589
57	0x3fae9fae	1.364248
58	0x3fb9f52a	1.4527943
59	0x3c9ff930	0.019528002
60	0x40164e1f	2.3485181
61	0xc026f3d6	-2.6086326
62	0x3ff9f888	1.9528971
63	0xbc96f2ed	-0.018426383
