Code/price_predictor_cpu.pth (torch, 43264 bytes, 5 tensors)

network.0.weight f4 [128, 13]
0	0x3f49c164	0.78810716
1	0xbfa90fa4	-1.3207898
2	0x3e521735	0.20516665
3	0x39e9d648	0.00044600875
4	0xbb32a354	-0.0027257996
5	0xbfebeaa3	-1.843098
6	0x3dde3962	0.10850789
7	0xc03e0f63	-2.9696891
8	0x3e11a135	0.14221652
9	0x3e93df0c	0.2888111
10	0x428a9647	69.29351
11	0x3ca4158e	0.02002981
12	0x3dd858f0	0.105638385
13	0x410945a8	8.579506
14	0xbd0cd86e	-0.03438609
15	0x3b84cee3	0.004052983
16	0x3b3203f2	0.0027162996
17	0x3d11b546	0.035573266
18	0x3e5661fc	0.20935816
19	0xbc6b4fee	-0.014362318
20	0xc16525d9	-14.32174
21	0xbd26b171	-0.040696565
22	0x3e4eb7b3	0.20187263
23	0x41daa43e	27.330196
24	0xbcb03ee7	-0.02151437
25	0x3d0e6cd4	0.034771755
26	0x3f38e2d7	0.7222113
27	0xbdf2afbf	-0.11849927
28	0x3b4264e4	0.0029662186
29	0x3c6895e1	0.01419589
30	0xbe58baab	-0.21164958
31	0x3f4e16d3	0.80503577
32	0x3bbe5f93	0.005809733
33	0xc0312701	-2.7680056
34	0xbe466e8b	-0.19378106
35	0x3e80ad59	0.25132254
36	0x4288832e	68.25621
37	0x3be6060f	0.007019765
38	0x3ddeb63a	0.10874601
39	0x4116c19f	9.422271
40	0xbc654aac	-0.013994854
41	0xbc11f19e	-0.008907704
42	0xbbcb7640	-0.006209165
43	0x3b88ad54	0.004171053
44	0xbe31f29d	-0.17377706
45	0xbd8f30b4	-0.06991711
46	0xc1950b72	-18.630589
47	0x3cc8b795	0.024501601
48	0x3d0dd5ab	0.034627598
49	0x41bca685	23.581308
50	0xbcc30381	-0.023805382
51	0xbc1d6cb5	-0.009608437
52	0xbde761c6	-0.11297946
53	0x3e58eed1	0.21184851
54	0xbe5b81ec	-0.2143628
55	0x3cb3b4ff	0.021936892
56	0x3db7c1a3	0.0897248
57	0x3de048a4	0.10951355
58	0x3e399db6	0.18126568
59	0xbd458364	-0.048221007
60	0x3d97f5a8	0.07419902
61	0x3d08d3b7	0.033405032
62	0xbe171235	-0.14753039
63	0xbd0711d1	-0.032975975
64	0x3d0d7242	0.034532793
65	0x3e7ae0df	0.24499844
66	0xbe59dc3c	-0.21275419
67	0xbe1beea7	-0.15227757
68	0x3db904fc	0.09034154
69	0x3ddb9405	0.10721592
70	0x3b8bd54d	0.004267371
71	0xbe0c19e7	-0.13681756
72	0x3e0662b0	0.13123584
73	0x3d6a61e3	0.05722226
74	0x3e7ce316	0.24696001
75	0x3e3c6fc1	0.18402006
76	0xbe40049d	-0.1875176
77	0x3d91108e	0.07083236
78	0x3db08ff4	0.08621207
79	0xbda2db87	-0.07952028
80	0x3de56352	0.112005845
81	0x3e0a347f	0.13496588
82	0xbe81924b	-0.25306925
83	0xbdca8aac	-0.09889731
84	0xbe390e61	-0.18071891
85	0x3e3a9389	0.18220343
86	0x3d4a3d88	0.049375087
87	0xbcb8c0dc	-0.0225529
88	0x3d99b5bd	0.07505367
89	0xbe5344dd	-0.20631738
90	0xbe2936c6	-0.165248
91	0xbe84ca51	-0.25935605
92	0x3d00bfdf	0.031432983
93	0x3e10edde	0.14153239
94	0xbe3d0ac0	-0.18461132
95	0xbe88f050	-0.26745844
96	0x3ca76f12	0.020438705
97	0xbe073a47	-0.13205825
98	0xbd23046b	-0.039799135
99	0xbda319dc	-0.07963917
100	0xbe86ec1f	-0.2635202
101	0xbe823e19	-0.25438002
102	0xbe8771cd	-0.2645401
103	0xbe0f4697	-0.13991772
104	0x3ddac4fe	0.106821045
105	0x3e24890a	0.16067901
106	0x3e0ff78c	0.14059275
107	0x3d73f20e	0.059557013
108	0xbce3463a	-0.027743448
109	0x3e2608aa	0.16214243
110	0xbd65f145	-0.056138296
111	0xbe691d36	-0.2276505
112	0xbe2b61be	-0.16736504
113	0xbdd439da	-0.10362597
114	0x3e1f7973	0.15573673
115	0xbe466f0e	-0.19378302
116	0x3e8c9ac3	0.27461824
117	0x3fc94e9e	1.5727117
118	0xbce5ad7f	-0.028036831
119	0xbac08edd	-0.0014691014
120	0x3b6753c2	0.0035297726
121	0x3e01d962	0.12680581
122	0x3f75f130	0.9607115
123	0xbb19320b	-0.0023375775
124	0xc048b62d	-3.1361191
125	0x3e0f4a97	0.13993298
126	0x3ef531be	0.47889513
127	0x4283f232	65.97304
128	0xbb05d8da	-0.0020423443
129	0x3de4d22c	0.111728996
130	0x409a5521	4.8228917
131	0xbfaf4b5c	-1.3694873
132	0x3b8f4cbb	0.0043731607
133	0xbf9ccca2	-1.2249949
134	0x3eaf3f37	0.34227917
135	0xc0b9d535	-5.8072762
136	0x3f568b6a	0.8380648
137	0x4071163c	3.766982
138	0x3f27648e	0.6538781
139	0x3fe0e1fd	1.7568966
140	0x419b1a99	19.387987
141	0x3d32d6dd	0.04366194
142	0xbf82943a	-1.0201485
143	0x3e9d7c1c	0.3075875
144	0x3dd88af5	0.10573379
145	0x3c2cb90f	0.010542168
146	0x3c2bbdc6	0.010482257
147	0xbd826763	-0.06367376
148	0xbfbd1a22	-1.47736
149	0x3e490f5e	0.19634768
150	0xc0350717	-2.8285577
151	0xbe9b12b4	-0.30287707
152	0xbf2ec32a	-0.68266547
153	0x428b76dc	69.73215
154	0x38ee5000	0.000113636255
155	0x3e5708b3	0.20999412
156	0x4189b7f9	17.21483
157	0x40591fcb	3.3925655
158	0xbe028d5a	-0.12749234
159	0xbe284495	-0.16432412
160	0xbe1ae2ef	-0.15125631
161	0xc00b3e00	-2.1756592
162	0x3f85fcd6	1.0467784
163	0xc2228f0b	-40.63969
164	0xbf268104	-0.6504061
165	0xbf2e21f0	-0.68020535
166	0xc1183990	-9.514053
167	0x3d1f17a2	0.038840897
168	0xbebd51bb	-0.36976418
169	0xbd81e57b	-0.06342598
170	0xbe707d94	-0.23485404
171	0x3e805dba	0.25071508
172	0xbd7932ff	-0.06083965
173	0xbd5e5ab6	-0.054285727
174	0x3e653366	0.22382888
175	0xbc4c595c	-0.012472477
176	0x3d0ee645	0.03488757
177	0xbe686ffb	-0.22698967
178	0x3c2d79b7	0.010588101
179	0xbd3a3b0f	-0.04546648
180	0xbe1de1d3	-0.15418176
181	0x3dfb8642	0.12281467
182	0xbcbc84dc	-0.023012571
183	0xbe424f07	-0.18975459
184	0x3dfc6dfc	0.12325665
185	0xbe411395	-0.18855126
186	0xba7e25e5	-0.0009694978
187	0xbe59e016	-0.21276888
188	0x3d1ff4df	0.039051887
189	0xbdf9a7d0	-0.12190211
190	0x3e15981f	0.14608811
191	0x3e1d8d5f	0.1538596
192	0x3ca4bcad	0.020109499
193	0xbda48bef	-0.08034503
194	0xbe5f9542	-0.21834281
195	0x4020c0e1	2.5117724
196	0xbe96ef4f	-0.29479453
197	0x3d6d4e82	0.0579362
198	0x3c12219b	0.008919145
199	0x3eb049fc	0.34431446
200	0xbf0a63ac	-0.5405834
201	0xbc97c181	-0.018524887
202	0xbf7d1494	-0.98859525
203	0xbd0971d5	-0.033555824
204	0xbf60c284	-0.8779681
205	0x423a0c47	46.51199
206	0xbd61cfdd	-0.055129874
207	0xbea8567f	-0.3287849
208	0x3f549791	0.8304377
209	0x3a3b9708	0.00071559893
210	0x3a8ac42b	0.0010587027
211	0x3b0f0f16	0.002182906
212	0xba42afc8	-0.0007426706
213	0x3d8219c7	0.06352573
214	0x3d8c879e	0.068618044
215	0xc0485dfd	-3.1307366
216	0x3d581bff	0.052761074
217	0xbe4703d6	-0.19435057
218	0x4289e32a	68.94368
219	0x39fd69b8	0.00048334687
220	0xbe7f683a	-0.24942103
221	0x3e755a1e	0.23960158
222	0xbdf808a3	-0.12111022
223	0x3cf5840a	0.029970188
224	0xbe67dcaa	-0.2264277
225	0xbd8579c6	-0.06517367
226	0x3e528a87	0.20560656
227	0xbe88c01e	-0.26709074
228	0xbda792e2	-0.081823125
229	0xbe2dc73e	-0.16970536
230	0xbe455250	-0.19269681
231	0xbe26f055	-0.16302617
232	0xbdf59826	-0.11991911
233	0x3e37a9c4	0.17935854
234	0x3dfe298e	0.1241027
235	0x3d14b50a	0.036305465
236	0xbe2c525a	-0.1682829
237	0xbe495595	-0.19661553
238	0xbdd9ff92	-0.10644449
239	0xbc0ba319	-0.008522772
240	0xbe1cae52	-0.15300873
241	0xbdfc2c7f	-0.123131745
242	0x3cb33e77	0.021880371
243	0xbe41bd7a	-0.18919936
244	0x3e25aa69	0.16178288
245	0xbdece526	-0.11567144
246	0xbe4790ca	-0.19488826
247	0x3ea6296d	0.3245348
248	0x3e9233a1	0.28555015
249	0xbe6dade9	-0.23210873
250	0x3c186bbf	0.009303032
251	0xbdee3f85	-0.11633209
252	0xc080e73d	-4.0282273
253	0xbd8a84ea	-0.067636326
254	0xbeec432b	-0.46144995
255	0xbc96e137	-0.018417938

network.0.bias f4 [128]
0	0x3e3863fe	0.18006894
1	0xbe44d0b9	-0.19220246
2	0xbe6e2a13	-0.23258238
3	0xbeceef83	-0.40417108
4	0xbde47356	-0.11154811
5	0xbe462968	-0.19351733
6	0x39991006	0.00029194372
7	0xbe504e59	-0.20342387
8	0x3e1c1402	0.15242007
9	0xbc1fef91	-0.009761707
10	0x3b421d01	0.0029619338
11	0x3dadb5e1	0.08481956
12	0xbe27df64	-0.1639381
13	0xbc9090b2	-0.017647121
14	0x3e256e3e	0.16155335
15	0xbdeea2eb	-0.11652168
16	0xbd4f2096	-0.050568186
17	0xbd1641b8	-0.036683768
18	0x3dd60416	0.10449998
19	0x3db2dcc7	0.08733516
20	0xbe6ac13a	-0.22925273
21	0xbe46e8dd	-0.19424768
22	0x3cd789b4	0.02631078
23	0xbe204c0d	-0.15654011
24	0xbd762ed1	-0.06010324
25	0xbdc70a95	-0.09718815
26	0xbda3ab68	-0.079916775
27	0xbd20278c	-0.039100215
28	0xbd9d2230	-0.076725364
29	0xbd116a6a	-0.035501875
30	0xbe059f0f	-0.13048957
31	0x3db35a3c	0.08757445
32	0xbe50dd4e	-0.20396921
33	0x3e8f7ec8	0.28026414
34	0xbe9600fe	-0.29297632
35	0x3bbfce25	0.0058534318
36	0xbd44d500	-0.048054695
37	0xbe01c848	-0.12674057
38	0xbea22dd9	-0.31675604
39	0xbe3a74c4	-0.18208605
40	0xbe6ea36d	-0.2330453
41	0xbd4599ee	-0.048242502
42	0x3cc6a203	0.024247175
43	0xbeb3745e	-0.3504972
44	0xbd9cfb5f	-0.07665133
45	0xbeeed5a3	-0.46647367
46	0x3e129904	0.14316183
47	0x3cba4067	0.022735788
48	0x3b227ac6	0.0024792417
49	0x3e3e6f55	0.18597157
50	0xbe184452	-0.14869812
51	0x3cd7c819	0.026340531
52	0xbe1b3850	-0.151582
53	0xbe04ac35	-0.12956317
54	0x3d6d59dc	0.057947025
55	0xbe6a960d	-0.22908802
56	0xbe9d6864	-0.30743706
57	0xbdffc7ca	-0.124892786
58	0x3e7f37d7	0.24923645
59	0x3e0e3b46	0.13889799
60	0x3d4a1a7b	0.04934166
61	0x3ce92f12	0.028464828
62	0xbe3f8a69	-0.18705143
63	0xbe37d634	-0.17952806
64	0xbc37ef64	-0.011226509
65	0x3e84b501	0.25919345
66	0xbe876ed5	-0.26451746
67	0x3d5a89e2	0.05335415
68	0x3e78baa0	0.24289942
69	0xbe0d224e	-0.13782617
70	0xbdb0ffac	-0.086425155
71	0x3c784807	0.015153891
72	0xbdb4c529	-0.08826668
73	0x3e70d57d	0.2351894
74	0x3e86182a	0.2619031
75	0x3e5b6d04	0.21428305
76	0xbe2fdcba	-0.17174044
77	0xbea1d80b	-0.3161014
78	0x3d6852d9	0.056719635
79	0xbe41c2a5	-0.18921907
80	0x3e5e49c6	0.2170783
81	0x3b1b343b	0.0023682255
82	0xbec5345d	-0.38516513
83	0xbe28edd6	-0.16496977
84	0x3e541091	0.20709445
85	0x3e3229fd	0.1739883
86	0xbe38f9ec	-0.18064088
87	0xbe43af23	-0.19109778
88	0x3d4f16bd	0.050558794
89	0x3ddc0af2	0.10744275
90	0xbe2ace12	-0.16680172
91	0x3e877980	0.26459885
92	0x3d17418c	0.036927745
93	0x3e92676f	0.2859454
94	0x3da18141	0.07885981
95	0xbe4e1e94	-0.20128852
96	0xbe9b9bcb	-0.30392298
97	0xbe693614	-0.22774535
98	0xbe5d6475	-0.21620353
99	0xbdc4192a	-0.09575112
100	0xbd9a0e1c	-0.075222224
101	0xbebdb718	-0.37053752
102	0x3d280dd8	0.041028827
103	0xbe882f09	-0.26598385
104	0xbe503407	-0.20332347
105	0xbe420a46	-0.18949232
106	0xbd0844a9	-0.033268604
107	0x3dea4150	0.114382386
108	0xbc990981	-0.01868129
109	0xbe1d94f5	-0.15388854
110	0xbea01a8f	-0.31270263
111	0x3c587108	0.0132105425
112	0x3db3feba	0.087888196
113	0xbde811b1	-0.11331499
114	0xbe7d8139	-0.24756326
115	0x3e4b08f8	0.1982764
116	0xbe4167a7	-0.18887196
117	0xbbabeab4	-0.0052464847
118	0xbe413faa	-0.18871942
119	0xbec43632	-0.38322598
120	0x3e3b4b8f	0.18290542
121	0xbe56e4d8	-0.20985734
122	0x3dd6319e	0.104586825
123	0xbe71ad13	-0.23601179
124	0x3eaa1064	0.3321563
125	0xbdf06cb8	-0.117394865
126	0x3e3595b9	0.17732896
127	0xbbabdd6f	-0.005244903

network.2.weight f4 [64, 128]
0	0x3cf34ca8	0.029699638
1	0x3d81b276	0.06332867
2	0xbd11db08	-0.035609275
3	0x3d54c54d	0.051945973
4	0xbd1372a4	-0.035998
5	0xbcc7f962	-0.024410907
6	0x3d90931b	0.07059308
7	0xbda111d5	-0.07864729
8	0x3d23a7a8	0.03995481
9	0x3da49494	0.080361515
10	0x3c141cf0	0.009040102
11	0xbd8edb11	-0.06975377
12	0x3d0ba145	0.034089345
13	0xbd8e7014	-0.06954971
14	0x3c6379e9	0.013884046
15	0xbe11930b	-0.14216249
16	0xbc222cd7	-0.009898386
17	0x3d0b3c50	0.033993065
18	0xbd835ef7	-0.064145975
19	0x3d3729b9	0.044717524
20	0xbc8d879b	-0.017276576
21	0xbd94e840	-0.07270861
22	0xbd5e6ad6	-0.054301105
23	0x3d66364a	0.056204118
24	0xbd834c9c	-0.064110965
25	0x3d033413	0.032032084
26	0x3d075fc2	0.033050306
27	0xbae68a50	-0.0017588828
28	0xbd1e9f8c	-0.038726375
29	0xbd1f016c	-0.038819715
30	0xbd16b4fe	-0.0367937
31	0xbd9bde4c	-0.07610759
32	0xbda46d5a	-0.0802867
33	0xbc7b466a	-0.015336612
34	0x3c2fa305	0.010720019
35	0x3cfc4ff2	0.03079984
36	0x3d868fe9	0.065704174
37	0x3da89bde	0.08232854
38	0x3d2e58aa	0.042565025
39	0x3d759518	0.05995664
40	0xbda5406a	-0.08068927
41	0xbd67f908	-0.05663398
42	0x3c9484e0	0.018129766
43	0xbc46c525	-0.012131964
44	0xbd074a9f	-0.03303015
45	0x3d08e075	0.033417184
46	0xbdb2a1ab	-0.08722242
47	0xbd4005c8	-0.046880513
48	0xbc01f835	-0.007932712
49	0xbd8a5e88	-0.06756312
50	0xbb3a7ffb	-0.002845763
51	0xbcc2352a	-0.023706991
52	0xbdbbbd74	-0.09166995
53	0x3cbaafde	0.022788938
54	0xbc58d7a3	-0.013235006
55	0xbda75290	-0.081700444
56	0xbdf6c8ee	-0.12050043
57	0xbd726041	-0.059173826
58	0xbd89fee5	-0.067380704
59	0x3c45b7c3	0.012067738
60	0xbd22300d	-0.039596606
61	0xbd8eaeef	-0.0696696
62	0x3d3c42d1	0.04596216
63	0xbd7ecc44	-0.06220652
64	0xbd4d8e33	-0.05018444
65	0x3cc31d2f	0.023817627
66	0x3d86e8ce	0.06587373
67	0xbcbf18f0	-0.02332732
68	0x3ce34e14	0.027747191
69	0xbd8750d6	-0.06607215
70	0xbd142b8a	-0.036174335
71	0xbcc6701f	-0.024223385
72	0x3c993710	0.018703014
73	0xbe13e6a1	-0.14443447
74	0x3d5d4eaa	0.054030098
75	0xbd61b928	-0.05510822
76	0xbd5999a1	-0.053125028
77	0x3d6a5edb	0.057219367
78	0x3cce9ab3	0.02522025
79	0x3d888c40	0.066673756
80	0xbca7efee	-0.02050015
81	0x3d178515	0.03699215
82	0x3cc7d71d	0.024394566
83	0xbda6f5e1	-0.081523664
84	0x3d6532a5	0.0559565
85	0x3d9035f3	0.0704154
86	0x3d71969e	0.05898153
87	0xbd607e31	-0.054807846
88	0xbd2eab47	-0.04264381
89	0xbd973d08	-0.07384688
90	0xbd954a23	-0.07289531
91	0x3d344774	0.044013456
92	0xbe008a34	-0.1255272
93	0xbda3fbc9	-0.080070086
94	0xbcfb26ad	-0.03065809
95	0xbda5732a	-0.080786064
96	0xbd10da61	-0.035364512
97	0xbd650f4e	-0.0559228
98	0xbe15c622	-0.14626363
99	0x3cbc8f43	0.023017531
100	0x3d9eefe1	0.07760597
101	0x3d0277bc	0.03185247
102	0xbd59a148	-0.053132325
103	0xbcbc799f	-0.023007212
104	0xbd846eec	-0.06466469
105	0xbce23281	-0.027611973
106	0xbb88a55b	-0.0041701025
107	0x3d1b85b4	0.037969306
108	0x3cfaaad3	0.030599033
109	0x3c53ee0a	0.012935171
110	0x3bf4e003	0.0074729933
111	0x3cd2096f	0.025639264
112	0x3ce0d8e6	0.027447175
113	0x3d7ef7b3	0.062247943
114	0xbccfbb25	-0.025357792
115	0x3d56ad80	0.052411556
116	0x3d4039cb	0.046930116
117	0xbdc15bb9	-0.09441323
118	0xbd82a610	-0.0637933
119	0xbbe2cc63	-0.0069213375
120	0xbc8d40ab	-0.01724275
121	0x3cd3ade9	0.025839763
122	0x3cf99cb5	0.030470232
123	0xbd03ea6b	-0.03220598
124	0xbbb01dbb	-0.005374638
125	0xbd13e634	-0.03610821
126	0x3db4e62c	0.08832964
127	0xbd94f77a	-0.07273765
128	0x3cc01d8f	0.023451595
129	0xbd054a87	-0.032541778
130	0x3b85e242	0.00408581
131	0xbcf83112	-0.030296836
132	0x3d75b586	0.059987567
133	0xbb460c70	-0.0030219816
134	0x3d991d9d	0.074763514
135	0x3d889a76	0.06670086
136	0x3b982672	0.004643255
137	0xbc8b9fa3	-0.017043894
138	0x3d19f459	0.037586544
139	0xbd7e6df9	-0.062116597
140	0xbdab24d5	-0.083566345
141	0xbd4f196e	-0.05056136
142	0x3d34123c	0.043962702
143	0x3c715f7a	0.014732236
144	0xbd681b3a	-0.05666659
145	0xbd4d1568	-0.050069243
146	0x3da21ca7	0.07915621
147	0xbdb23a7f	-0.087025635
148	0xbdb961e8	-0.09051877
149	0xbda70f04	-0.08157161
150	0xbce53165	-0.027977655
151	0x3d1f5d36	0.038907252
152	0x3d053a7a	0.03252647
153	0x3d9019a1	0.07036138
154	0xbdbbb331	-0.091650374
155	0x3da4c487	0.08045297
156	0xbe1ae8e8	-0.15127909
157	0x3cd396bc	0.025828712
158	0x3c453cdd	0.012038437
159	0x3b1d4c4f	0.0024001782
160	0xbd48cfb3	-0.049026202
161	0xbdebd45d	-0.115151145
162	0xbc0e5520	-0.008687288
163	0xbcd52eca	-0.026023287
164	0xbdd14dda	-0.10219927
165	0xbd84c908	-0.06483656
166	0xbd76fc7c	-0.06029938
167	0xbd464078	-0.048401326
168	0xbd997a1e	-0.07493995
169	0xbc0755a2	-0.008260163
170	0xbd7e60ce	-0.06210404
171	0xbe1e722d	-0.15473242
172	0x3d5b4eaa	0.053541817
173	0xbd8ea2b7	-0.06964629
174	0xbdba43fe	-0.09095
175	0xbd819ab0	-0.063283324
176	0xbd86f045	-0.065887965
177	0xbd485771	-0.048911516
178	0xbd7164b6	-0.058933936
179	0x3d74dac3	0.05977894
180	0xbdf4703d	-0.1193547
181	0x3c8655a7	0.016398264
182	0x3d909929	0.07060463
183	0xbd323854	-0.04351075
184	0xbdff7a1d	-0.12474463
185	0xba68e960	-0.0008884873
186	0xbcdaa901	-0.026691915
187	0x3d179b64	0.037013426
188	0x3c33dd12	0.010978
189	0xbd4fba9c	-0.050715074
190	0x3c92bdd9	0.017912792
191	0xbe01b652	-0.12667206
192	0xbd251dce	-0.040311627
193	0x3d5b27be	0.053504698
194	0xbcc6efa3	-0.02428419
195	0xbca63166	-0.020287227
196	0xbdbe334e	-0.09287129
197	0x3d8eddf3	0.06975927
198	0xbbbe8483	-0.0058141365
199	0xbdcc33e2	-0.09970833
200	0x3bfa256f	0.007633857
201	0xbdd784fb	-0.10523411
202	0x3c05abf2	0.008158671
203	0x3c3f539a	0.011677647
204	0x3d0ddc06	0.03463366
205	0xbdad9a0b	-0.08476647
206	0x3dab1136	0.08352892
207	0x3d85b5ff	0.065288536
208	0xbd51582f	-0.05110949
209	0x3cffe3a7	0.031236483
210	0xbd9c7454	-0.07639375
211	0xbda88775	-0.082289614
212	0x3d181a68	0.037134558
213	0xbd65d33d	-0.056109656
214	0x3d2a9a3b	0.041650992
215	0xbd1f042d	-0.03882234
216	0xbd91581a	-0.07096882
217	0xbdc7ba88	-0.09752375
218	0xbde2247d	-0.11042116
219	0x3c5b0cdf	0.013369768
220	0xbdea0235	-0.11426202
221	0xbc7133de	-0.014721839
222	0xbda4e5fd	-0.08051679
223	0xbdc133b2	-0.09433688
224	0xbda0266b	-0.07819828
225	0x3d07ca0b	0.033151668
226	0xbe113dc3	-0.14183716
227	0x3cdd968f	0.027049331
228	0xbdaffdec	-0.08593354
229	0x3c0663a8	0.008202471
230	0xbddd97ea	-0.10819991
231	0x3b361ab7	0.002778692
232	0xbb6fc952	-0.0036588502
233	0xbd3c0cae	-0.04591053
234	0xbdcaf37b	-0.099097215
235	0x3a9dbe29	0.0012034822
236	0x3cce1ed4	0.025161184
237	0xba80e53c	-0.0009833942
238	0xbdbad54d	-0.09122715
239	0x3d0042b3	0.03131361
240	0xbd64d810	-0.055870116
241	0xbc8ab847	-0.016933573
242	0xbcb46711	-0.022021802
243	0x39c78d1e	0.00038061378
244	0xbdea31a6	-0.11435251
245	0x3d2328df	0.0398339
246	0xbd2ce56d	-0.042210985
247	0xbdce910b	-0.100862585
248	0x3d38c6e1	0.04511154
249	0xbc8febdd	-0.017568523
250	0x3bbfc8d6	0.005852799
251	0x3c707f2a	0.014678756
252	0xbdd7a085	-0.105286635
253	0xbe026747	-0.1273471
254	0x3b1fb8cd	0.0024371624
255	0xbcaa1e38	-0.020766363

network.2.bias f4 [64]
0	0xbd9a8297	-0.07544439
1	0xbd1c33ef	-0.038135465
2	0xbdc8e170	-0.09808624
3	0x3f0b5f12	0.5444194
4	0xbeae4b8a	-0.34042007
5	0xbda690f4	-0.08133116
6	0xbf1ae0b5	-0.60499126
7	0xbf654ba1	-0.89568526
8	0x3d4c0654	0.049810722
9	0x3ce91229	0.028451042
10	0x3e8277c5	0.25482002
11	0xbeeb5d68	-0.459697
12	0xbece8648	-0.40336823
13	0xbee17e05	-0.44041458
14	0xbed69235	-0.41908422
15	0xbcb97acf	-0.022641568
16	0x3eaa8650	0.33305597
17	0xbef2a5d0	-0.4739213
18	0xbcd9e340	-0.026597619
19	0xbd2fb02b	-0.042892616
20	0xbec6617d	-0.38746253
21	0xbebf7855	-0.37396494
22	0xbc838f2f	-0.016059486
23	0xbdc99d41	-0.09844447
24	0xbca076cf	-0.019587902
25	0xbd84e527	-0.0648902
26	0xbd3a2255	-0.045442898
27	0xbdec740f	-0.11545574
28	0xbeaa13b2	-0.3321815
29	0xbf0e279f	-0.55529207
30	0x3efcda9a	0.4938553
31	0x3d087f39	0.033324454
32	0xbe106fd6	-0.14105162
33	0xbef79b08	-0.48360467
34	0xba1a717d	-0.0005891545
35	0xbeaf6fcc	-0.34264982
36	0x3eb902f4	0.36135066
37	0xbe09cd9a	-0.13457337
38	0x3ec8917e	0.39173502
39	0xbef89887	-0.4855387
40	0xbec90b3c	-0.39266384
41	0xbd82a33d	-0.063787915
42	0x3d7350e2	0.059403308
43	0xbc50873f	-0.012727558
44	0xbeaaf8b5	-0.33392873
45	0xbee15d2d	-0.440164
46	0xbece6c35	-0.4031693
47	0xbf795a5e	-0.97403514
48	0xbef63795	-0.4808928
49	0xbf21f2a4	-0.63260865
50	0xbe047cbf	-0.12938212
51	0x3d0ab9af	0.033868488
52	0xbd3bffee	-0.04589837
53	0xbd38c429	-0.045108948
54	0xbf326d56	-0.69698083
55	0xbc78901e	-0.015171079
56	0xbc4e37cc	-0.012586545
57	0xbf0cd3e5	-0.55010825
58	0x3edccb02	0.43123633
59	0xbebd1b9b	-0.36935124
60	0xbf7142d9	-0.94242626
61	0xbdcba805	-0.099441566
62	0xbec6de92	-0.38841683
63	0xbee9195a	-0.45527154

network.4.weight f4 [1, 64]
0	0x3c08177d	0.008306381
1	0x3d3c9a01	0.046045307
2	0xbd7be269	-0.06149522
3	0xc0088ce3	-2.133599
4	0x3f9041de	1.1270101
5	0xbcee5544	-0.029093392
6	0x403e2513	2.9710128
7	0x40225a29	2.536753
8	0xbcf9828b	-0.030457756
9	0xbbe4f09b	-0.00698669
10	0xbfd75078	-1.6821432
11	0x3f9a1296	1.2036922
12	0x3f9ef15c	1.2417407
13	0x401198ca	2.2749505
14	0x3f9031f2	1.1265242
15	0xbdbbe8ec	-0.09175286
16	0xbfb23ebf	-1.3925399
17	0x3f962290	1.1729298
18	0xbd1d340a	-0.038379706
19	0x3ce00fe2	0.027351324
20	0x3f9c9557	1.2233075
21	0x3f93694e	1.1516511
22	0x3d88e72b	0.06684717
23	0x3cb3c977	0.021946652
24	0xbc29a162	-0.010353418
25	0xbba88485	-0.0051427507
26	0xbd92a2e8	-0.07159978
27	0x3d40ba92	0.047052927
28	0x3f9df7aa	1.2341206
29	0x40029757	2.040487
30	0xbfe717d6	-1.8054149
31	0x3c96483a	0.018344987
32	0xbd551fc7	-0.05203226
33	0x3f9b0e8d	1.2113816
34	0xbd137969	-0.036004458
35	0x3f9ab305	1.2085882
36	0xc00a2d2c	-2.159007
37	0xbd4388cd	-0.047737885
38	0xbff8e61f	-1.9445227
39	0x3f8c38e5	1.0954863
40	0x3f975741	1.1823503
41	0xbaaad0e7	-0.0013032228
42	0xbd4718da	-0.048607685
43	0xbd7b5cbf	-0.061367746
44	0x3f985245	1.1900107
45	0x3f9e1737	1.2350835
46	0x3f990e15	1.1957422
47	0x3fc9e6ed	1.5773598
48	0x3f97b606	1.1852424
49	0x40863a1f	4.194595
50	0xbc1565ad	-0.00911848
51	0xbd405258	-0.04695353
52	0x3db9b541	0.090677746
53	0xbccf0d3f	-0.02527487
54	0x40023d42	2.0349889
55	0x3ce5f616	0.028071444
56	0x3c1b515f	0.00947985
57	0x3fb52417	1.4151639
58	0xbff47288	-1.9097452
59	0x3f9e7184	1.2378392
60	0x40291d40	2.6424103
61	0x3c253aa8	0.0100847855
62	0x3f988596	1.1915767
63	0x3fbbfd9b	1.4686769
