Code/price_predictor.pth (torch, 43224 bytes, 5 tensors)

network.0.weight f4 [128, 13]
1.2115428 -0.67336607 0.040498264 -0.07913075 0.012960187 -3.6895802 0.19955243 -2.6260715
0.26586062 -0.11960794 70.928215 0.037736405 0.0507849 9.325698 0.007981549 -0.0028544418
-0.01104472 -0.0029239727 0.039220877 -0.01881417 -14.6059265 -0.006226314 0.007936294 32.57548
-0.025483983 0.063052766 9.492707 -0.012279747 -0.006172373 -0.010109641 0.0012186682 -0.2494573
-0.065911874 -16.028482 0.021110147 0.00485786 30.429586 -0.023352679 0.056995854 4.6239123
-0.11649876 0.10640533 -0.4140761 -0.09725042 -1.2722391 -0.17079319 -7.477139 -0.054870542
-0.6106028 33.30649 -0.042125303 0.12360203 0.32920554 -0.7243775 0.10879988 0.00044538407
-3.38221e-05 -0.52408105 0.19673076 -1.3531257 0.09311491 0.2964858 72.24527 0.005684449
0.12500282 9.563331 -0.013870246 -0.005536955 -0.016110027 0.015802158 0.06583183 -0.071016066
-15.624126 -0.089925945 0.0011729859 30.83646 -0.015546316 0.033098973 6.969896 -0.029026933
-0.016255645 -0.009274295 -0.0024290888 0.44638932 -0.003735796 -4.5879445 -0.0033062967 0.055791747
42.020283 -0.025580073 0.010648643 1.1075085 -0.21488348 0.059626643 -0.00096483156 0.016253276
-2.0373774 0.008819463 -2.8019633 0.02251045 -0.009352579 72.0755 0.0036790366 0.055672772
1.3526491 -0.93169487 0.16039495 0.010058594 0.105635405 -1.3301449 -0.0025387618 -4.134371
0.049018797 0.48278627 74.560394 0.013907618 -0.13284598 5.2091985 0.5261214 -0.0444238
-0.24886692 0.2175457 -2.7771423 -0.20207813 -8.192698 -0.1313855 -0.61908793 36.45174
-0.048791293 -0.15357868 13.870606 -0.20190883 0.43839505 0.24541952 -0.2817497 -6.33856
-0.13486153 -24.520624 0.1959259 -4.680473 -50.69344 0.31533623 0.67541975 0.09255634
0.17029566 -0.26480445 -0.08255738 0.24519259 -0.14188637 0.13049394 -0.14163862 0.23662806
-0.05193606 0.11003127 -0.1975546 0.20694686 0.09195473 0.20330656 -0.12301437 0.07712839
-0.04080603 -0.20284219 -0.11886916 -0.2078258 -0.02498691 -0.058813136 0.037780758 -0.06269678
-0.26057062 2.0426342 0.124538794 -0.0050668493 0.0193395 0.0064149173 -1.2040753 0.006935803
-5.7118397 -0.029141353 0.03294184 75.22606 -0.003594656 -0.008359393 0.96447843 -0.45205685
-0.06303959 0.049277946 -0.002147719 -2.1057522 -0.15080197 -3.4340892 -0.0138134565 0.08148533
58.15437 -0.064734064 0.036531746 1.1155448 0.08368927 0.02713088 -0.0033689192 -0.0027486782
-0.23719127 0.0078066806 -4.53276 -0.11801514 -0.4389208 74.271774 0.001931295 0.15687464
3.3979983 0.024917256 0.07058149 -0.38375238 -0.07398544 -0.99535334 -0.20002821 -9.432799
-0.060346793 -0.21708484 37.83014 -0.025100026 0.01314934 9.547985 0.008649191 -0.0115503995
-0.013460094 0.010589809 -0.055190913 -0.0512956 -17.870436 -0.024954444 0.032958955 27.298069
-0.016661381 0.08539027 3.8947365 2.4514031 -0.11134474 -0.20342693 -0.23155148 0.4054523
0.12905651 -14.08583 -0.32162213 0.4708175 45.208603 -0.057992198 -0.20220429 4.6297956
-0.70177126 0.04990808 0.0045627737 -6.9495068 13.847766 -0.6464767 -22.512672 -0.34939718
00000000: d613 9b3f b861 2cbf 82e1 253d 4d0f a2bd
00000010: f756 543c 1522 6cc0 7957 4c3e 8e11 28c0
00000020: e21e 883e 02f5 f4bd 3fdb 8d42 7d91 1a3d
00000030: d403 503d 0f36 1541 0bc5 023c 9611 3bbb
00000040: eaf4 34bc 1fa0 3fbb 12a6 203d 2d20 9abc
00000050: e0b1 69c1 1c06 ccbb 3b07 023c 4b4d 0242
00000060: c9c3 d0bc cf21 813d 21e2 1741 fe30 49bc
00000070: 9e41 cabb e8a2 25bc b8bb 9f3a bc71 7fbe
00000080: cefc 86bd 553a 80c1 30ef ac3c af2e 9f3b
00000090: cb6f f341 1e4e bfbc 7c74 693d 17f7 9340
000000a0: e796 eebd 0aeb d93d c801 d4be 3a2b c7bd
000000b0: bbd8 a2bf 69e4 2ebe b944 efc0 efbf 60bd
000000c0: 7750 1cbf d939 0542 958b 2cbd 1023 fd3d
000000d0: a18d a83e ce70 39bf 79d2 de3d 7082 e939
000000e0: 34dc 0db8 2d2a 06bf ca73 493e 3933 adbf
000000f0: 08b3 be3d fdcc 973e 947d 9042 9d44 ba3b
00000100: bd00 003e 6703 1941 0740 63bc 586f b5bb
00000110: 2df9 83bc 8773 813c d7d2 863d df70 91bd
00000120: 6cfc 79c1 182b b8bd e0be 993a 12b1 f641
00000130: fab5 7ebc ca92 073d 6309 df40 e4c9 edbc
00000140: 8f2a 85bc 36f3 17bc 5931 1fbb 248d e43e
00000150: 42d4 74bb 71d0 92c0 74ae 58bb e385 643d
00000160: c514 2842 4d8d d1bc a577 2e3c d7c2 8d3f
00000170: 6a0a 5cbe 113b 743d c0ec 7cba 9725 853c
00000180: 6464 02c0 827f 103c 5e53 33c0 d667 b83c
00000190: 8f3b 19bc a826 9042 fe1b 713b 2209 643d
000001a0: 9b23 ad3f 8e83 6ebf 933e 243e cdcc 243c
000001b0: 6057 d83d 3042 aabf 5b61 26bb c44c 84c0
000001c0: efc7 483d c32f f73e ec1e 9542 c7dc 633c
000001d0: c708 08be c1b1 a640 e4af 063f bbf5 35bd
000001e0: f8d6 7ebe 4dc4 5e3e b3bc 31c0 92ed 4ebe
000001f0: 4a15 03c1 ec89 06be 8c7c 1ebf 95ce 1142
00000200: 61d9 47bd bb43 1dbe 01ee 5d41 30c1 4ebe
00000210: 5175 e03e 414f 7b3e 7f41 90be 7cd5 cac0
00000220: 2419 0abe 3d2a c4c1 cda0 483e 6fc6 95c0
00000230: 15c6 4ac2 c073 a13e 4fe8 2c3f 2e8e bd3d
00000240: fc61 2e3e 7394 87be d813 a9bd c413 7b3e
00000250: a94a 11be 34a0 053e b709 11be a04e 723e
00000260: e8ba 54bd 1358 e13d c14b 4abe e1e9 533e
00000270: c352 bc3d 982f 503e f5ee fbbd 7df5 9d3d
00000280: 3924 27bd ddb5 4fbe ad71 f3bd 49d0 54be
00000290: 59b1 ccbc 0be6 70bd ffbf 1a3d 2b67 80bd
000002a0: 8369 85be 85ba 0240 320e ff3d d007 a6bb
000002b0: df6d 9e3c 3a34 d23b 241f 9abf bc45 e33b
000002c0: 64c7 b6c0 d9b9 eebc 06ee 063d be73 9642
000002d0: 5294 6bbb d6f5 08bc 0fe8 763f ff73 e7be
000002e0: e71a 81bd acd7 493d bfc0 0cbb a5c4 06c0
000002f0: d56b 1abe 1ec8 5bc0 d651 62bc c8e1 a63d
00000300: 139e 6842 4b93 84bd 50a2 153d 2cca 8e3f
00000310: 4865 ab3d 9441 de3c 16c9 5cbb 2b23 34bb
00000320: 45e2 72be 2fcf ff3b 5f0c 91c0 ecb1 f1bd
00000330: 3aba e0be 268b 9442 8223 fd3a bfa3 203e
00000340: ce78 5940 461f cc3c 078d 903d 317b c4be
00000350: ae85 97bd 7acf 7ebf 32d4 4cbe bfec 16c1
00000360: 332e 77bd 7d4b 5ebe 1052 1742 929e cdbc
00000370: 5470 573c 8cc4 1841 56b5 0d3c e33d 3dbc
00000380: ba87 5cbc e180 2d3c de0f 62bd 561b 52bd
00000390: a7f6 8ec1 436d ccbc f8ff 063d 7262 da41
000003a0: 737d 88bc 18e1 ae3d 5d43 7940 cae3 1c40
000003b0: b608 e4bd 264f 50be d51b 6dbe 7297 cf3e
000003c0: 6427 043e 8f5f 61c1 a8ab a4be fe0e f13e
000003d0: 9cd5 3442 3a89 6dbd a40e 4fbe 4927 9440
000003e0: 48a7 33bf 6a6c 4c3d 5283 953b 5c62 dec0
000003f0: 7390 5d41 7f7f 25bf f419 b4c1 30e4 b2be

network.0.bias f4 [128]
-0.036596682 -0.13901606 0.064911164 -0.5342237 0.0056980154 -0.36538574 -0.363204 -0.1878171
-0.0643941 -0.39068133 0.08249095 -0.23937741 0.15316683 -0.015423741 -0.32936716 -0.24410099
-0.13204722 0.05099565 0.08370162 0.30300182 -0.41540697 0.13041857 -0.06772754 -0.25005177
0.042665277 0.2324707 0.15159936 0.24354355 0.045387197 -0.34535822 -0.25891054 -0.27635822
-0.2190633 -0.24392876 -0.17326462 -0.19708905 0.10773092 -0.2046859 -0.037251223 -0.12343953
-0.086554915 -0.026021255 -0.3687125 0.2729196 -0.21589708 -0.17220587 0.099030636 -0.10180642
-0.24402876 -0.16090228 0.09313848 -0.27838212 0.10966755 -0.457905 0.18080194 0.20192616
0.2710484 -0.101911865 0.027982844 0.060914565 -0.21974748 -0.23689106 -0.01791243 -0.23769069
-0.18674341 -0.117551215 -0.16519968 0.07004437 0.20543002 0.07430838 -0.07286198 -0.24404456
-0.21851912 0.20242365 0.20032771 -0.14901875 0.1579707 -0.17033058 0.12992224 -0.043154936
0.2473447 -0.01635092 -0.15768212 -0.08976162 -0.14150496 0.19518001 0.13045044 -0.118622415
0.06590556 -0.2612911 -0.30681702 0.26322058 -0.12279245 0.06007838 0.020231204 0.112577066
0.27602223 -0.0457258 -0.12950206 -0.32772487 0.0747442 -0.002072536 0.15411851 -0.18957955
-0.05113992 -0.1547653 0.16234677 0.09191618 0.1510765 0.033481754 0.26972684 -0.16382675
-0.23972999 -0.23260026 0.21413703 -0.09870414 0.22172546 0.32603332 0.18493831 -0.18230167
-0.22536157 -0.24102911 0.10327815 0.068845466 -0.098941624 0.1874687 0.18719348 -0.13930921
00000000: 67e6 15bd 3a5a 0ebe 25f0 843d e2c2 08bf
00000010: 6bb6 ba3b d713 bbbe e0f5 b9be 2053 40be
00000020: 0ee1 83bd 6207 c8be 04f1 a83d 5a1f 75be
00000030: c4d7 1c3e dcb3 7cbc d0a2 a8be 9cf5 79be
00000040: 6337 07be d1e0 503d c16b ab3d 0e23 9b3e
00000050: 39b0 d4be 728c 053e bdb4 8abd c906 80be
00000060: c9c1 2e3d cd0c 6e3e dd3c 1b3e 7b63 793e
00000070: ede7 393d cbd2 b0be ec8f 84be d37e 8dbe
00000080: 2152 60be 76c8 79be 486c 31be b6d1 49be
00000090: 07a2 dc3d 2e99 51be bd94 18bd ddcd fcbd
000000a0: b443 b1bd 872a d5bc e3c7 bcbe 1ebc 8b3e
000000b0: 2014 5dbe bc56 30be 93d0 ca3d e27f d0bd
000000c0: ade2 79be 91c3 24be 63bf be3d 1a88 8ebe
000000d0: 6199 e03d 8672 eabe 2524 393e bbc5 4e3e
000000e0: dbc6 8a3e 2bb7 d0bd 473c e53c 8d81 793d
000000f0: 7c05 61be 9293 72be 17bd 92bc 3065 73be
00000100: aa39 3fbe b1be f0bd 1b2a 29be 6c73 8f3d
00000110: 3f5c 523e fe2e 983d a938 95bd d1e6 79be
00000120: 7ac3 5fbe 2548 4f3e b522 4d3e 5f98 18be
00000130: 12c3 213e 246b 2ebe 560a 053e 3bc3 30bd
00000140: ee47 7d3e 5df2 85bc 6c77 21be f1d4 b7bd
00000150: ade6 10be 45dd 473e cd94 053e 4ff0 f2bd
00000160: 7ff9 863d f2c7 85be 1f17 9dbe d9c4 863e
00000170: 9c7a fbbd bf14 763d e9bb a53c ce8e e63d
00000180: c952 8d3e fa4a 3bbd 309c 04be 8ecb a7be
00000190: 7d13 993d 62d3 07bb 3ed1 1d3e 2421 42be
000001a0: 1878 51bd cb7a 1ebe 3b3e 263e 8d3e bc3d
000001b0: ccb3 1a3e 2a24 093d a319 8a3e 33c2 27be
000001c0: c77b 75be c32e 6ebe bd46 5b3e 6525 cabd
000001d0: 000c 633e d7ed a63e 7860 3d3e 4aad 3abe
000001e0: 2fc5 66be 56d0 76be 7f83 d33d dafe 8c3d
000001f0: e8a1 cabd cbf7 3f3e a6af 3f3e 13a7 0ebe

network.2.weight f4 [64, 128]
0.29804006 3.6254508 3.4125254 0.1311963 0.4115201 4.0002327 4.2820725 0.54425114
0.9423601 0.13636796 -0.35306948 0.044567235 -0.019320885 1.7087222 0.05305118 1.3358524
0.19327676 4.2471676 0.15230535 0.40098253 2.3874643 -0.03132571 2.0343406 0.33190858
0.056211695 0.01390512 0.9509097 0.01841166 0.080832586 0.06956744 0.04694808 2.7716062
0.19557144 0.7759234 0.07154783 2.384132 3.9273536 0.069965474 0.0931894 -0.22965693
0.18648374 0.01749333 4.5848927 0.018199071 5.938935 0.066146925 4.8884115 5.4569407
2.7906635 0.81307614 -0.0682288 2.4151647 0.1817601 -0.0353632 6.3795967 1.2273486
4.998386 0.093123175 0.053062152 1.3887304 0.084422305 -0.0012920854 0.33219725 0.045118608
3.2435727 0.014748215 -0.30672336 0.01932965 -0.014286728 3.4236326 -0.09647859 6.6624975
4.9710855 0.06333334 -0.06734927 -0.19344327 -0.30545795 -0.099587515 4.542879 0.0042249262
-0.060441013 0.24297825 1.6517723 5.0405974 -0.054969594 0.06056369 0.06325204 0.5756438
1.220752 0.0553259 7.6336107 -0.080479436 -0.035849173 -0.055455156 -0.03151168 0.05794708
-0.06996498 6.618053 -0.022574548 -0.45470032 4.036669 -0.071741745 -0.075266264 0.084687
0.10444802 -0.030817118 0.853 0.019343011 0.6567333 4.370479 0.027150778 0.04002369
6.1118693 0.06285158 0.71153593 3.8954065 0.58893657 1.4240957 0.04615632 4.3546004
-0.013367832 4.8915815 0.3967352 0.2606937 0.48407373 6.0209155 -0.08565209 0.23178613
-0.04892574 -0.08555675 -0.065058656 -0.002244249 -0.03680016 -0.01537685 -0.02272402 -0.017762126
-0.032207817 -0.12740062 -0.07464541 0.08096158 0.052686375 -0.08139496 -0.026810942 0.01626022
0.007634905 -0.03536348 -0.08149445 0.071488716 -0.01391253 0.04533529 -0.07326571 0.03454446
0.062328856 -0.030558867 0.009232688 0.029283272 -0.050269242 0.027314855 0.07715383 -0.007434836
0.022848409 -0.01830912 -0.08248778 0.050685104 0.008793343 -0.059351888 -0.043804403 -0.10338892
0.043171838 -0.029055446 0.03096156 0.0053821523 0.05780678 -0.07875632 -0.004689472 -0.017294526
0.06900295 0.05163596 0.03814886 -0.050425615 -0.09678397 -0.011487673 -0.0007474814 0.022530714
0.062421147 -0.056027345 0.039167866 -0.09016348 0.06331017 0.042659078 -0.09310484 -0.099165596
-0.0838678 -0.0054774885 -0.051334005 -0.08580393 -0.08644556 -0.030775987 -0.08608805 0.04677739
-0.07582407 0.030369237 -0.038029257 -0.06514348 -0.013876868 -0.04303902 -0.07917381 0.035344556
0.013487117 -0.105484195 0.041665476 -0.06631282 -0.014018863 -0.00020373786 -0.025153976 -0.0038373314
-0.09484568 0.06889762 0.06170097 -0.056693528 0.06943646 -0.081895396 -0.08253468 0.057452098
0.012971831 0.057442 0.024774149 -0.0524804 -0.11003404 0.080056526 0.009940292 0.084135436
-0.116216615 -0.04394688 -0.06430297 0.07732637 -0.019387225 -0.07693671 0.008114449 -0.060459096
-0.08651667 -0.026566833 -0.110223874 0.071270585 -0.042764187 0.008687506 -0.042383175 0.033688713
0.01314144 0.005191906 0.032770343 -0.053821526 -0.045310907 0.02081379 0.06043643 -0.014668052
00000000: b598 983e 6307 6840 d166 5a40 5358 063e
00000010: c3b2 d23e e801 8040 bd06 8940 0b54 0b3f
00000020: 833e 713f 0ba4 0b3e 86c5 b4be 228c 363d
00000030: d546 9ebc 69b7 da3f 324c 593d 36fd aa3f
00000040: 58ea 453e cce8 8740 eff5 1b3e 954d cd3e
00000050: 37cc 1840 634f 00bd a332 0240 ecef a93e
00000060: 3c3e 663d 4dd2 633c d16e 733f 0dd4 963c
00000070: 8e8b a53d 6079 8e3d a14c 403d ff61 3140
00000080: e143 483e eaa2 463f ab87 923d 9e95 1840
00000090: c359 7b40 0f4a 8f3d 16da be3d 302b 6bbe
000000a0: 98f5 3e3e 2c4e 8f3c 71b7 9240 3816 953c
000000b0: c10b be40 0a78 873d de6d 9c40 429f ae40
000000c0: 3b9a 3240 c225 503f 8bbb 8bbd 0f92 1a40
000000d0: 521f 3a3e 01d9 10bd a825 cc40 c219 9d3f
000000e0: c7f2 9f40 5db7 be3d b357 593d ebc1 b13f
000000f0: 9ae5 ac3d 315b a9ba c215 aa3e 4ace 383d
00000100: b296 4f40 7fa2 713c d80a 9dbe 3759 9e3c
00000110: e112 6abc cc1c 5b40 9196 c5bd 2e33 d540
00000120: 2213 9f40 e9b4 813d 6aee 89bd fe15 46be
00000130: fc64 9cbe 8af4 cbbd 445f 9140 4071 8a3b
00000140: ff90 77bd 4acf 783e 466d d33f 934c a140
00000150: cc27 61bd a211 783d 498a 813d 645d 133f
00000160: 9a41 9c3f 699d 623d 8a46 f440 67d2 a4bd
00000170: 95d6 12bd f224 63bd 6412 01bd eb59 6d3d
00000180: cd49 8fbd 17c7 d340 42ee b8bc 7bce e8be
00000190: 642c 8140 56ed 92bd 3325 9abd 6170 ad3d
000001a0: d8e8 d53d 2e74 fcbc 355e 5a3f 3c75 9e3c
000001b0: ac1f 283f f7da 8b40 4f6b de3c e1ef 233d
000001c0: 6f94 c340 54b8 803d 3827 363f 574e 7940
000001d0: 8cc4 163f c548 b63f 690e 3d3d e358 8b40
000001e0: c004 5bbc d687 9c40 e020 cb3e a579 853e
000001f0: 83d8 f73e 57ab c040 5d6a afbd 5859 6d3e
00000200: 5b66 48bd 6138 afbd 793d 85bd 4014 13bb
00000210: c4bb 16bd 2fef 7bbc b927 babc e181 91bc
00000220: 58ec 03bd 4f75 02be b1df 98bd 2fcf a53d
00000230: abcd 573d 67b2 a6bd 9fa2 dbbc 2734 853c
00000240: 3a2e fa3b 4cd9 10bd 90e6 a6bd ad68 923d
00000250: 61f1 63bc 7fb1 393d 550c 96bd 7e7e 0d3d
00000260: 8b4c 7f3d 9756 fabc b344 173c 79e3 ef3c
00000270: 1fe7 4dbd 67c3 df3c d402 9e3d ed9f f3bb
00000280: 962c bb3c 02fd 95bc 5aef a8bd 2f9b 4f3d
00000290: f411 103c f71a 73bd 3f6c 33bd 92bd d3bd
000002a0: f4d4 303d b005 eebc 19a3 fd3c c45c b03b
000002b0: cdc6 6c3d fe4a a1bd 24aa 99bb 40ad 8dbc
000002c0: 6b51 8d3d 3a80 533d fb41 1c3d 178b 4ebd
000002d0: ad36 c6bd cb36 3cbc a1f2 43ba 5592 b83c
000002e0: 51ad 7f3d ee7c 65bd 7c6e 203d a1a7 b8bd
000002f0: c3a8 813d 49bb 2e3d c0ad bebd 5517 cbbd
00000300: e2c2 abbd 817c b3bb 9b43 52bd f9b9 afbd
00000310: 5f0a b1bd ec1d fcbc ee4e b0bd a699 3f3d
00000320: a649 9bbd e8c8 f83c 91c4 1bbd f269 85bd
00000330: ce5b 63bc af49 30bd e125 a2bd 74c5 103d
00000340: 12f9 5c3c 1908 d8bd 6ba9 2a3d 04cf 87bd
00000350: 60af 65bc 77a2 55b9 b60f cebc bd7b 7bbb
00000360: 743e c2bd 321a 8d3d 28ba 7c3d 7937 68bd
00000370: b434 8e3d c6b8 a7bd f107 a9bd e452 6b3d
00000380: cd87 543c 4d48 6b3d 28f3 ca3c b0f5 56bd
00000390: 8759 e1bd adf4 a33d 9bdc 223c 334f ac3d
000003a0: fa02 eebd a501 34bd 47b1 83bd 4a5d 9e3d
000003b0: f5d1 9ebc fe90 9dbd 77f2 043c f5a3 77bd
000003c0: a72f b1bd b0a2 d9bc 0ebd e1bd 50f6 913d
000003d0: 8029 2fbd 0b56 0e3c fb99 2dbd 2dfd 093d
000003e0: 324f 573c dd20 aa3b 323a 063d f673 5cbd
000003f0: ee97 39bd ae81 aa3c 318c 773d 4552 70bc

network.2.bias f4 [64]
-0.4451545 -0.008257023 0.5136898 0.44155982 -0.39339578 -0.06901759 -0.4222441 -0.044964742
-0.11447231 -0.42749795 -0.43355224 -0.123849265 -0.4200832 -0.51013786 -0.42929852 0.01723148
-0.10192098 -0.049585503 -0.37139496 -0.44344026 -0.071058646 -0.5064157 -0.016991543 -0.034114882
-0.07382113 -0.5234605 -0.3599564 -0.05413073 0.40552828 -0.45242566 0.056521174 0.63581795
-0.37200063 -0.49426815 -0.013868339 -0.0739809 0.00425637 0.039415628 -0.09345183 -0.057300508
-0.12341876 -0.50967026 -0.10779962 -0.10112948 0.0554154 -0.053157993 0.035842285 -0.39712012
-4.1098367e-05 0.49809268 -0.111706436 0.6876916 -0.44055018 0.03423687 -0.008471975 -0.42895052
0.042049255 0.7714796 -0.42515096 0.033689383 -0.0034645407 -0.10794401 -0.03655944 -0.0053235907
00000000: 4aeb e3be 7748 07bc 2d81 033f 2114 e23e
00000010: 2c6b c9be 1859 8dbd 6130 d8be f32c 38bd
00000020: 7570 eabd 03e1 dabe 8ffa ddbe afa4 fdbd
00000030: 2515 d7be 6598 02bf 04cd dbbe 0829 8d3c
00000040: f2bb d0bd 2b1a 4bbd 7b27 bebe 9a0a e3be
00000050: 3287 91bd 76a4 01bf d931 8bbc 0cbc 0bbd
00000060: 882f 97bd 8201 06bf 354c b8be 2fb8 5dbd
00000070: 67a1 cf3e 56a4 e7be bf82 673d f7c4 223f
00000080: de76 bebe b710 fdbe 0838 63bc 4c83 97bd
00000090: 0579 8b3b 4872 213d ac63 bfbd f0b3 6abd
000000a0: fac2 fcbd c079 02bf 0cc6 dcbd f91c cfbd
000000b0: 42fb 623d 32bc 59bd 5ccf 123d 5453 cbbe
000000c0: 0961 2cb8 0106 ff3e 58c6 e4bd 8f0c 303f
000000d0: cb8f e1be f63b 0c3d 0ace 0abc 679f dbbe
000000e0: d73b 2c3d b07f 453f 63ad d9be e1fd 093d
000000f0: 590d 63bb c011 ddbd 5abf 15bd 8471 aebb

network.4.weight f4 [1, 64]
2.4930632 -0.028289825 -2.597613 -2.3898752 2.2467442 0.056268614 2.1784341 -0.105664946
-0.016204385 2.024058 1.9999657 -0.03944483 2.0485144 2.0171685 2.1697545 0.07361187
-0.021975793 0.04637277 2.1529822 2.2345786 -0.020679206 1.9785843 -0.059757937 0.0086013265
-0.01902455 2.1021607 1.9205971 -0.039177056 -2.498552 2.1420794 0.08078675 -2.1488838
1.9955359 2.10612 -0.031013373 0.053717874 -0.09832363 -0.023296488 -0.026927397 -0.03156845
0.05711642 2.0489244 0.00888226 0.04308169 -0.005557099 -0.021673243 -0.042561945 2.1336386
-0.036442112 -2.3743165 -0.024111321 -2.7141185 2.072413 0.008390811 -0.046846893 2.3350804
-0.023456937 -1.7269939 2.1987863 -0.07398753 0.002363602 0.042017493 -0.010534628 -0.06166013
00000000: 598e 1f40 10c0 e7bc 4b3f 26c0 b7f3 18c0
00000010: a8ca 0f40 eb79 663d 776b 0b40 dd66 d8bd
00000020: 0fbf 84bc 2b8a 0140 e0fe ff3f e790 21bd
00000030: dc1a 0340 4a19 0140 42dd 0a40 d2c1 963d
00000040: 9406 b4bc 60f1 3d3d 76ca 0940 5603 0f40
00000050: 7067 a9bc 4042 fd3f bdc4 74bd 94ec 0c3c
00000060: 60d9 9bbc cd89 0640 20d6 f53f 1f78 20bd
00000070: 47e8 1fc0 d417 0940 8673 a53d 5087 09c0
00000080: b86d ff3f acca 0640 c20f febc 4607 5c3d
00000090: e65d c9bd 47d8 bebc d896 dcbc eb4d 01bd
000000a0: e8f2 693d 9421 0340 e686 113c 6d76 303d
000000b0: 5318 b6bb 168c b1bc 6f55 2ebd 898d 0840
000000c0: 5344 15bd cdf4 17c0 1b85 c5bc 1eb4 2dc0
000000d0: 6aa2 0440 9d79 093c 87e2 3fbd f571 1540
000000e0: c328 c0bc 230e ddbf eab8 0c40 c686 97bd
000000f0: a9e6 1a3b 891a 2c3d 6f99 2cbc 558f 7cbd
